data/config/models/data_driven/thermal_mlp/state_checkup_rolling25.pth (torch, 3927 bytes, 5 tensors)

layers.0.weight f4 [16, 4]
00000000: b974 0dbe 2e07 b63e 2027 af3e c406 5a3d
00000010: 88ec 84bd 10b8 bcbe 3400 77be d871 b93d
00000020: 3e98 043e 2d73 a53e f042 cbbe eaf1 2f3f
00000030: f823 d8be 5814 e93d ebcc 0d3f 3fc3 db3e
00000040: bf06 863e 02ba 08bf 11a7 38be b646 183f
00000050: 516a 4bbe 01f8 2bbe 83be c4bd 8225 403f
00000060: c4ef 443e 5b99 df3d 6d13 f4bd af73 3d3d
00000070: 5083 5d3d dcb1 173e 8065 6cbe a441 0fbe
00000080: e97c 6c3e d35d f7bc 25f8 f53d 11a6 873e
00000090: bad4 e7be b6b4 f0be 64be 74be 5a21 82be
000000a0: e3a1 873d eb53 55be 0718 9ebd 8506 633f
000000b0: 0f1d cc3d 2b1c a63e 9038 e8bd d97f 5c3e
000000c0: 442e 3c3e 0291 aabe 2659 a7be e0d5 c5bc
000000d0: fc1b 7dbe b2f1 c9be eb51 dd3e d0c1 543f
000000e0: dc09 47bc e067 0bbe ec09 b0be 4d86 693e
000000f0: d0ee 833c 679e 2c3e 9ab3 063d 8b3c 413e
-0.13814057 0.35552353 0.34209538 0.05322911 -0.06490427 -0.3685918 -0.24121171 0.09054917
0.12948701 0.32314435 -0.39699507 0.68728507 -0.42214942 0.113808334 0.55390805 0.42922398
0.26177022 -0.53408825 -0.18032481 0.59482896 -0.19864775 -0.16793825 -0.0960665 0.7505723
0.19232088 0.10917922 -0.11917768 0.046252903 0.054080307 0.14813942 -0.23085594 -0.13989884
0.23094524 -0.030196106 0.120102204 0.26493886 -0.45279485 -0.47012872 -0.23900753 -0.2541607
0.06622674 -0.20832793 -0.077194266 0.88681823 0.0996648 0.32443365 -0.113389134 0.21533145
0.18377024 -0.33313757 -0.32685202 -0.024149835 -0.24717706 -0.3944221 0.4322656 0.83108234
-0.012148347 -0.13613844 -0.3438257 0.22805138 0.016105086 0.168573 0.032886125 0.18870752

layers.0.bias f4 [16]
00000000: acae 0540 dae0 cbbe e64e 0840 da62 d73f
00000010: c219 e23f 4799 e13f ee1a fb3f c0b9 1abe
00000020: 136f 0d40 00f8 54bc b365 1040 26c6 1740
00000030: 1871 79be c291 c13f 58a5 1140 a54d 0f40
2.0887861 -0.39819986 2.1298156 1.6827042 1.7664111 1.7624902 1.9617593 -0.1510992
2.2099044 -0.012998581 2.2562072 2.371469 -0.24359548 1.5122607 2.2757168 2.239114

layers.2.weight f4 [16, 16]
00000000: d677 43be 3051 9ebc c672 7cbe b68f 51be
00000010: 28c7 453d b035 883d 9011 593d 2c59 8bbd
00000020: 0e2e 6c3e d068 123d cc0f 17be e0e3 67bc
00000030: a0e8 753d 744c b33d 4003 35be 6ce4 bf3d
00000040: 5e22 803f 82b8 54be 0d21 733f 068b a93f
00000050: e40c 9e3f c0f7 b33f 8637 a43f 2465 413e
00000060: 6dca 823f bcdb 0cbe bc5d 9b3f 4ad0 843f
00000070: 02c4 2cbe d3d2 673f b3e3 b03f 7a08 a53f
00000080: 275c 803f 48ac 16be ae8b 8b3f a937 6a3f
00000090: ee26 543f 0166 a53f d1f3 883f d0ed 693e
000000a0: 3858 a23f 5c24 993d 4f82 923f 5802 993f
000000b0: 404b 803b cc92 713f 1a24 a73f 24c4 9c3f
000000c0: 7605 6e3e 80b0 84bd 346e d8bd 10fa 77bd
000000d0: 105c f7bd a01e 2e3d 3e17 3f3e ac2f 483e
000000e0: 8012 eb3d 0266 3cbe 7c65 09be 08fc 60bd
000000f0: 78bf 3cbd 8071 a83c 2e00 6bbe 785b 9f3d
00000100: 329a 703f 8efb 21be 125c 613f 78c2 a63f
00000110: 205c 493f 8290 af3f 478a 903f 102e eebc
00000120: ca53 9b3f b04a bdbc f9af 9f3f a7bf ac3f
00000130: 0443 5ebe d2a7 8a3f 136c b03f 61a8 9b3f
00000140: 223c 953f 400c 8c3d cd80 773f bdb7 863f
00000150: d837 a13f 2cef ac3f 1957 903f a2c6 70be
00000160: 4a99 883f 4854 2ebe 7686 a53f 1c12 823f
00000170: 70de 93bc ac46 6e3f adfa af3f 73c7 b23f
00000180: b175 90bd 1844 143e 5a49 d33d 7f5f ba3d
00000190: 06a2 1dbe 02bc 5bbe 8fb4 94bc 50b5 8bbd
000001a0: a246 db3c 00b6 5fbd 7bf8 82be 2180 5dba
000001b0: 68ff 1c3d e935 653d 929e 063e 685a 903d
000001c0: e4ae 723e c03a 5b3c e436 5cbe 4a97 33be
000001d0: 3e05 1fbe 7e99 61be c251 00be 54aa 6bbe
000001e0: 8430 6cbe 56f9 18be 9c5f 7cbe d022 1dbe
000001f0: e43a c33d 7c84 553e 0c4d 98bd 10ee 94bd
00000200: 1642 da3d 1c9b fcbd 71c5 14be b58b 023e
00000210: 8b1f 7ebe 9ae4 5e3b 3665 433e 289a 2f3d
00000220: 5f32 2a3d 9617 15be 41ba eebc c777 55bc
00000230: 2053 7b3d 5082 8f3d 984b 413e 3eaf 5ebe
00000240: b77c 8e3f 54d0 ffbd a95b 5d3f 95ee 853f
00000250: d407 473f 6c89 ab3f aaa2 923f 28f9 09be
00000260: 98b7 943f 1a49 72be 64ce 773f 0128 8c3f
00000270: 3c89 59be 1cb8 4e3f ac2a a23f b8d8 a93f
00000280: 760a 4a3e 18e2 223e 717d 47be 05e6 51be
00000290: ca9b 323e bb38 1e3c 29aa f4bc 8094 0a3d
000002a0: ff9c 81be 08f3 aabd 580c 403e 4cec e4bd
000002b0: e078 4dbc 433a 86be 5e71 3fbe 0449 6bbd
000002c0: 8f02 34be c0f8 fdbc 2df6 a53d 3d0e 84be
000002d0: 2918 5a3d d5ae 2fbe 5413 08be d08f c43d
000002e0: 3349 343e 1cef 8bbd a581 00be 51d9 7dbe
000002f0: 2402 04be ca69 73be e364 9abd 99a6 e93c
00000300: 16d7 6fbe 5e84 5f3e b09c 203e 329c 7abe
00000310: 508c f4bd d0fd a63d 0064 52bd 102f dfbc
00000320: 102d e7bd cc9f 4d3e 821a 0fbe 7c4b 543e
00000330: 4024 843c a8d8 4d3d b8b6 473e 50b8 28bd
00000340: 8022 793f a89d 25bd 0e30 a33f bebe 653f
00000350: 761e 883f 8d50 6d3f afb5 a03f e02a bd3d
00000360: b09a 863f 34bf db3d fe9a 893f 834e a53f
00000370: a4a7 4abe 4085 703f 50b0 b63f 45a6 b23f
00000380: 5733 9f3f 1a28 3abe a8cc a13f 30ac 813f
00000390: ee2d 743f 5ec3 6d3f a1c7 893f 5e13 353e
000003a0: 5a29 893f b41b 15be 14c6 923f f615 893f
000003b0: fab9 693e 2dc3 403f eef7 9d3f 98fb 663f
000003c0: 18fe 3fbe 2468 a13d 15d0 173e 664e 76bd
000003d0: c0da 253e 1feb e1bd 05a1 7e3c bc39 4d3e
000003e0: 7a6c e33d 0e4a 0fbe 4328 083e eb3a 4c3d
000003f0: 8466 efbd e323 5bbe 83bc a4be 4a82 20bd
-0.19088683 -0.019325823 -0.24653158 -0.20464978 0.048285633 0.06650865 0.052995265 -0.068041176
0.23064443 0.03574449 -0.1475212 -0.014153451 0.0600363 0.08754817 -0.17677021 0.0936974
1.0010488 -0.20773509 0.94972306 1.3245552 1.2347684 1.4059982 1.2829444 0.18886238
1.0218025 -0.13755697 1.213798 1.0376065 -0.16871646 0.9055607 1.3819488 1.2893212
1.0028123 -0.14714158 1.0902002 0.9149118 0.828719 1.2921754 1.0699407 0.22844625
1.2683172 0.07477638 1.1446017 1.195384 0.0039152205 0.9436462 1.3057892 1.2247357
0.2324427 -0.06478977 -0.105678946 -0.060541213 -0.120781064 0.042509675 0.1866121 0.19549435
0.11478138 -0.18398288 -0.1341762 -0.054927856 -0.046081036 0.020561934 -0.22949287 0.07781118
0.93985283 -0.15818617 0.88031113 1.3028097 0.78656197 1.3715975 1.1292199 -0.029074699
1.2134945 -0.023106903 1.2475578 1.3495988 -0.21705252 1.0832465 1.3782982 1.216076
1.1658976 0.06838274 0.9668091 1.0524822 1.2595167 1.351049 1.127658 -0.23513272
1.067178 -0.17024338 1.2931659 1.0161777 -0.018050402 0.93076587 1.3748375 1.3967117
-0.07053698 0.144791 0.10316725 0.09100246 -0.15393838 -0.21458438 -0.018152503 -0.06821692
0.026767079 -0.054616928 -0.255802 -0.00084495737 0.038329512 0.055959616 0.13146427 0.070484936
0.23699528 0.013380706 -0.21505314 -0.17538181 -0.15529343 -0.22031209 -0.12531188 -0.23014194
-0.23065382 -0.14938864 -0.24645847 -0.15345311 0.09532717 0.2085132 -0.074365705 -0.07271969
0.10657136 -0.12334272 -0.14528443 0.12748607 -0.2481672 0.003401077 0.19081578 0.042871624
0.041551944 -0.14559779 -0.029141547 -0.013029045 0.06135857 0.07007277 0.18876493 -0.21746537
1.113181 -0.12490907 0.8646799 1.0463434 0.7774632 1.3401313 1.1455891 -0.13473952
1.1618528 -0.23660699 0.967993 1.0949708 -0.21243757 0.8074968 1.2669272 1.3269262
0.19730553 0.1590656 -0.19481446 -0.20497902 0.17442241 0.00965708 -0.029866295 0.033833027
-0.2531509 -0.08347136 0.18754709 -0.111778826 -0.012541026 -0.26216325 -0.1869559 -0.05744268
-0.17579101 -0.031002402 0.08103595 -0.25792113 0.053245697 -0.17156537 -0.13288623 0.095977426
0.17606048 -0.06832716 -0.12549455 -0.24789931 -0.12891442 -0.23770824 -0.07538774 0.028521823
-0.23421893 0.21827838 0.15684772 -0.24473646 -0.11940825 0.0815388 -0.0513649 -0.02724412
-0.11287892 0.20080489 -0.13974956 0.2073192 0.016130567 0.050255448 0.19503295 -0.0411914
0.9731827 -0.040433556 1.274904 0.89744174 1.0634296 0.92701036 1.2555445 0.092366934
1.0515957 0.107298285 1.0750425 1.2914585 -0.19790512 0.93953323 1.4272556 1.3956991
1.2437543 -0.1817936 1.2640581 1.0130672 0.95382583 0.9287623 1.0764047 0.17683169
1.0715744 -0.14561349 1.1466699 1.0709827 0.2282485 0.75297815 1.2341287 0.9022765
-0.18749273 0.078811914 0.14825471 -0.06013336 0.16196728 -0.11031174 0.01554132 0.20041555
0.11104675 -0.13993093 0.13296609 0.049860876 -0.11689475 -0.21400408 -0.32175073 -0.039186753

layers.2.bias f4 [16]
00000000: 2880 4fbe a288 e63f 1268 de3f d269 5ebe
00000010: d107 e23f 0490 d63f a71f 083d e0e3 123e
00000020: 61d9 8abe 4f9f f23f d80e 253e 1266 9f3d
00000030: 5af9 69be 3c6c cb3f 6ec3 cc3f 29f8 18be
-0.20263731 1.8010447 1.737551 -0.21720055 1.7658635 1.67627 0.03323331 0.1434474
-0.27118972 1.8954867 0.16118944 0.0778314 -0.22849026 1.5892406 1.599714 -0.14938416

layers.4.weight f4 [1, 16]
00000000: 445d 103e 5275 a03f fecb ac3f 80c1 bfbd
00000010: 7499 9f3f 4b74 9f3f 97f5 19be 3853 78be
00000020: e177 e5bd c7fa ac3f 10d2 4ebe 7013 51be
00000030: 4e69 0f3e 6a5c a63f ca88 b63f 115a fdbd
0.14098078 1.2535803 1.3499753 -0.09363079 1.2468705 1.2457365 -0.15035091 -0.24250495
-0.11204506 1.3514031 -0.2019732 -0.20417571 0.14005014 1.2996953 1.4260495 -0.123706944
